…
WARNING:tensorflow:From C:\Users\pouli\AppData\Local\Programs\Python\Python37\lib\site-packages\keras\backend\tensorflow_backend.py:4070: The name tf.nn.max_pool is deprecated. Please use tf.nn.max_pool2d instead.

Tensor("permute_1/transpose:0", shape=(?, 60, 64, 2), dtype=float32)
data_out[-2]:
60
Tensor("permute_1/transpose:0", shape=(?, 60, 64, 2), dtype=float32)
Tensor("permute_1/transpose:0", shape=(?, 60, 64, 2), dtype=float32)
Tensor("permute_1/transpose:0", shape=(?, 60, 64, 2), dtype=float32)
Model: "model_1"
_________________________________________________________________
Layer (type)                 Output Shape              Param #
=================================================================
input_1 (InputLayer)         (None, 10, 300, 64)       0
_________________________________________________________________
conv2d_1 (Conv2D)            (None, 64, 300, 64)       5824      
_________________________________________________________________
batch_normalization_1 (Batch (None, 64, 300, 64)       256
_________________________________________________________________
activation_1 (Activation)    (None, 64, 300, 64)       0
_________________________________________________________________
max_pooling2d_1 (MaxPooling2 (None, 64, 60, 16)        0
_________________________________________________________________
dropout_1 (Dropout)          (None, 64, 60, 16)        0
_________________________________________________________________
conv2d_2 (Conv2D)            (None, 64, 60, 16)        36928
_________________________________________________________________
batch_normalization_2 (Batch (None, 64, 60, 16)        64        
_________________________________________________________________
activation_2 (Activation)    (None, 64, 60, 16)        0
_________________________________________________________________
max_pooling2d_2 (MaxPooling2 (None, 64, 60, 4)         0
_________________________________________________________________
dropout_2 (Dropout)          (None, 64, 60, 4)         0
_________________________________________________________________
conv2d_3 (Conv2D)            (None, 64, 60, 4)         36928
_________________________________________________________________
batch_normalization_3 (Batch (None, 64, 60, 4)         16
_________________________________________________________________
activation_3 (Activation)    (None, 64, 60, 4)         0
_________________________________________________________________
max_pooling2d_3 (MaxPooling2 (None, 64, 60, 2)         0
_________________________________________________________________
dropout_3 (Dropout)          (None, 64, 60, 2)         0
_________________________________________________________________
permute_1 (Permute)          (None, 60, 64, 2)         0
_________________________________________________________________
reshape_1 (Reshape)          (None, 60, 128)           0
_________________________________________________________________
bidirectional_1 (Bidirection (None, 60, 128)           197376
_________________________________________________________________
bidirectional_2 (Bidirection (None, 60, 128)           197376
_________________________________________________________________
time_distributed_1 (TimeDist (None, 60, 128)           16512
_________________________________________________________________
dropout_4 (Dropout)          (None, 60, 128)           0
_________________________________________________________________
time_distributed_2 (TimeDist (None, 60, 36)            4644
_________________________________________________________________
doa_out (Activation)         (None, 60, 36)            0
=================================================================
Total params: 495,924
Trainable params: 495,756
Non-trainable params: 168