…
FUEGOOOOOOOOOOOOOOOOO  128
FUEGOOOOOOOOOOOOOOOOO  128
Tensor("dense_20/Relu:0", shape=(None, 256, 60, 128), dtype=float32)
Tensor("dense_20/Relu:0", shape=(None, 256, 60, 128), dtype=float32)
Tensor("dense_20/Relu:0", shape=(None, 256, 60, 128), dtype=float32)
Model: "model_1"
__________________________________________________________________________________________________
Layer (type)                    Output Shape         Param #     Connected to                     
==================================================================================================
input_1 (InputLayer)            (None, 5, 300, 64)   0                                            
__________________________________________________________________________________________________
conv2d_1 (Conv2D)               (None, 64, 300, 64)  2944        input_1[0][0]                    
__________________________________________________________________________________________________
batch_normalization_1 (BatchNor (None, 64, 300, 64)  256         conv2d_1[0][0]                   
__________________________________________________________________________________________________
activation_1 (Activation)       (None, 64, 300, 64)  0           batch_normalization_1[0][0]      
__________________________________________________________________________________________________
max_pooling2d_1 (MaxPooling2D)  (None, 64, 60, 16)   0           activation_1[0][0]               
__________________________________________________________________________________________________
conv2d_2 (Conv2D)               (None, 128, 60, 16)  73856       max_pooling2d_1[0][0]            
__________________________________________________________________________________________________
batch_normalization_2 (BatchNor (None, 128, 60, 16)  64          conv2d_2[0][0]                   
__________________________________________________________________________________________________
activation_2 (Activation)       (None, 128, 60, 16)  0           batch_normalization_2[0][0]      
__________________________________________________________________________________________________
max_pooling2d_2 (MaxPooling2D)  (None, 128, 60, 4)   0           activation_2[0][0]               
__________________________________________________________________________________________________
conv2d_3 (Conv2D)               (None, 256, 60, 4)   295168      max_pooling2d_2[0][0]            
__________________________________________________________________________________________________
batch_normalization_3 (BatchNor (None, 256, 60, 4)   16          conv2d_3[0][0]                   
__________________________________________________________________________________________________
activation_3 (Activation)       (None, 256, 60, 4)   0           batch_normalization_3[0][0]      
__________________________________________________________________________________________________
max_pooling2d_3 (MaxPooling2D)  (None, 256, 60, 2)   0           activation_3[0][0]               
__________________________________________________________________________________________________
conformer_1 (Conformer)         (None, 256, 60, 2)   0           max_pooling2d_3[0][0]            
                                                                 conformer_1[0][0]                
__________________________________________________________________________________________________
dense_19 (Dense)                (None, 256, 60, 256) 768         conformer_1[1][0]                
__________________________________________________________________________________________________
dense_20 (Dense)                (None, 256, 60, 128) 32896       dense_19[0][0]                   
__________________________________________________________________________________________________
reshape_13 (Reshape)            (None, 60, 32768)    0           dense_20[0][0]                   
__________________________________________________________________________________________________
bidirectional_1 (Bidirectional) (None, 60, 128)      25264896    reshape_13[0][0]                 
__________________________________________________________________________________________________
bidirectional_2 (Bidirectional) (None, 60, 128)      197376      bidirectional_1[0][0]            
__________________________________________________________________________________________________
time_distributed_1 (TimeDistrib (None, 60, 128)      16512       bidirectional_2[0][0]            
__________________________________________________________________________________________________
dropout_11 (Dropout)            (None, 60, 128)      0           time_distributed_1[0][0]         
__________________________________________________________________________________________________
time_distributed_2 (TimeDistrib (None, 60, 36)       4644        dropout_11[0][0]                 
__________________________________________________________________________________________________
doa_out (Activation)            (None, 60, 36)       0           time_distributed_2[0][0]         
==================================================================================================
Total params: 25,889,396
Trainable params: 25,889,228
Non-trainable params: 168
__________________________________________________________________________________________________
Dumping recording-wise val results in: ./results/2_mic_dev_val
SELD metrics class: loaded : 600 reference files
…
