…
data_out[-2]:
60
Tensor("average_pooling2d_1/transpose_1:0", shape=(?, 64, 75, 16), dtype=float32)
Tensor("average_pooling2d_1/transpose_1:0", shape=(?, 64, 75, 16), dtype=float32)
Tensor("average_pooling2d_1/transpose_1:0", shape=(?, 64, 75, 16), dtype=float32)
Model: "model_1"
__________________________________________________________________________________________________
Layer (type)                    Output Shape         Param #     Connected to                     
==================================================================================================
input_1 (InputLayer)            (None, 10, 300, 64)  0                                            
__________________________________________________________________________________________________
conv2d_1 (Conv2D)               (None, 64, 150, 32)  704         input_1[0][0]                    
__________________________________________________________________________________________________
batch_normalization_1 (BatchNor (None, 64, 150, 32)  128         conv2d_1[0][0]                   
__________________________________________________________________________________________________
activation_1 (Activation)       (None, 64, 150, 32)  0           batch_normalization_1[0][0]      
__________________________________________________________________________________________________
conv2d_2 (Conv2D)               (None, 64, 150, 32)  36928       activation_1[0][0]               
__________________________________________________________________________________________________
batch_normalization_2 (BatchNor (None, 64, 150, 32)  128         conv2d_2[0][0]                   
__________________________________________________________________________________________________
activation_2 (Activation)       (None, 64, 150, 32)  0           batch_normalization_2[0][0]      
__________________________________________________________________________________________________
conv2d_3 (Conv2D)               (None, 64, 150, 32)  4160        activation_2[0][0]               
__________________________________________________________________________________________________
conv2d_4 (Conv2D)               (None, 64, 150, 32)  704         input_1[0][0]                    
__________________________________________________________________________________________________
batch_normalization_3 (BatchNor (None, 64, 150, 32)  128         conv2d_3[0][0]                   
__________________________________________________________________________________________________
batch_normalization_4 (BatchNor (None, 64, 150, 32)  128         conv2d_4[0][0]                   
__________________________________________________________________________________________________
add_1 (Add)                     (None, 64, 150, 32)  0           batch_normalization_3[0][0]      
                                                                 batch_normalization_4[0][0]      
__________________________________________________________________________________________________
activation_3 (Activation)       (None, 64, 150, 32)  0           add_1[0][0]                      
__________________________________________________________________________________________________
conv2d_5 (Conv2D)               (None, 64, 150, 32)  4160        activation_3[0][0]               
__________________________________________________________________________________________________
batch_normalization_5 (BatchNor (None, 64, 150, 32)  128         conv2d_5[0][0]                   
__________________________________________________________________________________________________
activation_4 (Activation)       (None, 64, 150, 32)  0           batch_normalization_5[0][0]      
__________________________________________________________________________________________________
conv2d_6 (Conv2D)               (None, 64, 150, 32)  36928       activation_4[0][0]               
__________________________________________________________________________________________________
batch_normalization_6 (BatchNor (None, 64, 150, 32)  128         conv2d_6[0][0]                   
__________________________________________________________________________________________________
activation_5 (Activation)       (None, 64, 150, 32)  0           batch_normalization_6[0][0]      
__________________________________________________________________________________________________
conv2d_7 (Conv2D)               (None, 64, 150, 32)  4160        activation_5[0][0]               
__________________________________________________________________________________________________
batch_normalization_7 (BatchNor (None, 64, 150, 32)  128         conv2d_7[0][0]                   
__________________________________________________________________________________________________
add_2 (Add)                     (None, 64, 150, 32)  0           batch_normalization_7[0][0]      
                                                                 activation_3[0][0]               
__________________________________________________________________________________________________
activation_6 (Activation)       (None, 64, 150, 32)  0           add_2[0][0]                      
__________________________________________________________________________________________________
conv2d_8 (Conv2D)               (None, 64, 150, 32)  4160        activation_6[0][0]               
__________________________________________________________________________________________________
batch_normalization_8 (BatchNor (None, 64, 150, 32)  128         conv2d_8[0][0]                   
__________________________________________________________________________________________________
activation_7 (Activation)       (None, 64, 150, 32)  0           batch_normalization_8[0][0]      
__________________________________________________________________________________________________
conv2d_9 (Conv2D)               (None, 64, 150, 32)  36928       activation_7[0][0]               
__________________________________________________________________________________________________
batch_normalization_9 (BatchNor (None, 64, 150, 32)  128         conv2d_9[0][0]                   
__________________________________________________________________________________________________
activation_8 (Activation)       (None, 64, 150, 32)  0           batch_normalization_9[0][0]      
__________________________________________________________________________________________________
conv2d_10 (Conv2D)              (None, 64, 150, 32)  4160        activation_8[0][0]               
__________________________________________________________________________________________________
batch_normalization_10 (BatchNo (None, 64, 150, 32)  128         conv2d_10[0][0]                  
__________________________________________________________________________________________________
add_3 (Add)                     (None, 64, 150, 32)  0           batch_normalization_10[0][0]     
                                                                 activation_6[0][0]               
__________________________________________________________________________________________________
activation_9 (Activation)       (None, 64, 150, 32)  0           add_3[0][0]                      
__________________________________________________________________________________________________
average_pooling2d_1 (AveragePoo (None, 64, 75, 16)   0           activation_9[0][0]               
__________________________________________________________________________________________________
reshape_1 (Reshape)             (None, 60, 1280)     0           average_pooling2d_1[0][0]        
__________________________________________________________________________________________________
bidirectional_1 (Bidirectional) (None, 60, 128)      1082112     reshape_1[0][0]                  
__________________________________________________________________________________________________
bidirectional_2 (Bidirectional) (None, 60, 128)      197376      bidirectional_1[0][0]            
__________________________________________________________________________________________________
time_distributed_1 (TimeDistrib (None, 60, 128)      16512       bidirectional_2[0][0]            
__________________________________________________________________________________________________
dropout_1 (Dropout)             (None, 60, 128)      0           time_distributed_1[0][0]         
__________________________________________________________________________________________________
time_distributed_2 (TimeDistrib (None, 60, 36)       4644        dropout_1[0][0]                  
__________________________________________________________________________________________________
doa_out (Activation)            (None, 60, 36)       0           time_distributed_2[0][0]         
==================================================================================================
Total params: 1,434,916
Trainable params: 1,434,276
Non-trainable params: 640
__________________________________________________________________________________________________
Dumping recording-wise val results in: ./results/2_mic_dev_val
SELD metrics class: loaded : 600 reference files
…
