…
KerasTensor(type_spec=TensorSpec(shape=(None, 60, 128, 2), dtype=tf.float32, name=None), name='average_pooling2d/AvgPool:0', description="created by layer 'average_pooling2d'")
KerasTensor(type_spec=TensorSpec(shape=(None, 60, 128, 2), dtype=tf.float32, name=None), name='average_pooling2d/AvgPool:0', description="created by layer 'average_pooling2d'")
Model: "model"
__________________________________________________________________________________________________
Layer (type)                    Output Shape         Param #     Connected to                     
==================================================================================================
input_1 (InputLayer)            [(None, 10, 300, 64) 0                                            
__________________________________________________________________________________________________
conv2d (Conv2D)                 (None, 64, 300, 64)  31424       input_1[0][0]                    
__________________________________________________________________________________________________
batch_normalization (BatchNorma (None, 64, 300, 64)  256         conv2d[0][0]                     
__________________________________________________________________________________________________
activation (Activation)         (None, 64, 300, 64)  0           batch_normalization[0][0]        
__________________________________________________________________________________________________
max_pooling2d (MaxPooling2D)    (None, 64, 60, 16)   0           activation[0][0]                 
__________________________________________________________________________________________________
conv2d_1 (Conv2D)               (None, 64, 60, 16)   36928       max_pooling2d[0][0]              
__________________________________________________________________________________________________
batch_normalization_1 (BatchNor (None, 64, 60, 16)   64          conv2d_1[0][0]                   
__________________________________________________________________________________________________
activation_1 (Activation)       (None, 64, 60, 16)   0           batch_normalization_1[0][0]      
__________________________________________________________________________________________________
conv2d_2 (Conv2D)               (None, 64, 60, 16)   36928       activation_1[0][0]               
__________________________________________________________________________________________________
batch_normalization_2 (BatchNor (None, 64, 60, 16)   64          conv2d_2[0][0]                   
__________________________________________________________________________________________________
conv2d_3 (Conv2D)               (None, 64, 60, 16)   4160        max_pooling2d[0][0]              
__________________________________________________________________________________________________
add (Add)                       (None, 64, 60, 16)   0           batch_normalization_2[0][0]      
                                                                 conv2d_3[0][0]                   
__________________________________________________________________________________________________
activation_2 (Activation)       (None, 64, 60, 16)   0           add[0][0]                        
__________________________________________________________________________________________________
conv2d_4 (Conv2D)               (None, 64, 60, 16)   36928       activation_2[0][0]               
__________________________________________________________________________________________________
batch_normalization_3 (BatchNor (None, 64, 60, 16)   64          conv2d_4[0][0]                   
__________________________________________________________________________________________________
activation_3 (Activation)       (None, 64, 60, 16)   0           batch_normalization_3[0][0]      
__________________________________________________________________________________________________
conv2d_5 (Conv2D)               (None, 64, 60, 16)   36928       activation_3[0][0]               
__________________________________________________________________________________________________
batch_normalization_4 (BatchNor (None, 64, 60, 16)   64          conv2d_5[0][0]                   
__________________________________________________________________________________________________
add_1 (Add)                     (None, 64, 60, 16)   0           batch_normalization_4[0][0]      
                                                                 activation_2[0][0]               
__________________________________________________________________________________________________
activation_4 (Activation)       (None, 64, 60, 16)   0           add_1[0][0]                      
__________________________________________________________________________________________________
conv2d_6 (Conv2D)               (None, 64, 60, 16)   36928       activation_4[0][0]               
__________________________________________________________________________________________________
batch_normalization_5 (BatchNor (None, 64, 60, 16)   64          conv2d_6[0][0]                   
__________________________________________________________________________________________________
activation_5 (Activation)       (None, 64, 60, 16)   0           batch_normalization_5[0][0]      
__________________________________________________________________________________________________
conv2d_7 (Conv2D)               (None, 64, 60, 16)   36928       activation_5[0][0]               
__________________________________________________________________________________________________
batch_normalization_6 (BatchNor (None, 64, 60, 16)   64          conv2d_7[0][0]                   
__________________________________________________________________________________________________
add_2 (Add)                     (None, 64, 60, 16)   0           batch_normalization_6[0][0]      
                                                                 activation_4[0][0]               
__________________________________________________________________________________________________
activation_6 (Activation)       (None, 64, 60, 16)   0           add_2[0][0]                      
__________________________________________________________________________________________________
conv2d_8 (Conv2D)               (None, 128, 60, 16)  73856       activation_6[0][0]               
__________________________________________________________________________________________________
batch_normalization_7 (BatchNor (None, 128, 60, 16)  64          conv2d_8[0][0]                   
__________________________________________________________________________________________________
activation_7 (Activation)       (None, 128, 60, 16)  0           batch_normalization_7[0][0]      
__________________________________________________________________________________________________
conv2d_9 (Conv2D)               (None, 128, 60, 16)  147584      activation_7[0][0]               
__________________________________________________________________________________________________
batch_normalization_8 (BatchNor (None, 128, 60, 16)  64          conv2d_9[0][0]                   
__________________________________________________________________________________________________
conv2d_10 (Conv2D)              (None, 128, 60, 16)  8320        activation_6[0][0]               
__________________________________________________________________________________________________
add_3 (Add)                     (None, 128, 60, 16)  0           batch_normalization_8[0][0]      
                                                                 conv2d_10[0][0]                  
__________________________________________________________________________________________________
activation_8 (Activation)       (None, 128, 60, 16)  0           add_3[0][0]                      
__________________________________________________________________________________________________
conv2d_11 (Conv2D)              (None, 128, 60, 16)  147584      activation_8[0][0]               
__________________________________________________________________________________________________
batch_normalization_9 (BatchNor (None, 128, 60, 16)  64          conv2d_11[0][0]                  
__________________________________________________________________________________________________
activation_9 (Activation)       (None, 128, 60, 16)  0           batch_normalization_9[0][0]      
__________________________________________________________________________________________________
conv2d_12 (Conv2D)              (None, 128, 60, 16)  147584      activation_9[0][0]               
__________________________________________________________________________________________________
batch_normalization_10 (BatchNo (None, 128, 60, 16)  64          conv2d_12[0][0]                  
__________________________________________________________________________________________________
add_4 (Add)                     (None, 128, 60, 16)  0           batch_normalization_10[0][0]     
                                                                 activation_8[0][0]               
__________________________________________________________________________________________________
activation_10 (Activation)      (None, 128, 60, 16)  0           add_4[0][0]                      
__________________________________________________________________________________________________
conv2d_13 (Conv2D)              (None, 128, 60, 16)  147584      activation_10[0][0]              
__________________________________________________________________________________________________
batch_normalization_11 (BatchNo (None, 128, 60, 16)  64          conv2d_13[0][0]                  
__________________________________________________________________________________________________
activation_11 (Activation)      (None, 128, 60, 16)  0           batch_normalization_11[0][0]     
__________________________________________________________________________________________________
conv2d_14 (Conv2D)              (None, 128, 60, 16)  147584      activation_11[0][0]              
__________________________________________________________________________________________________
batch_normalization_12 (BatchNo (None, 128, 60, 16)  64          conv2d_14[0][0]                  
__________________________________________________________________________________________________
add_5 (Add)                     (None, 128, 60, 16)  0           batch_normalization_12[0][0]     
                                                                 activation_10[0][0]              
__________________________________________________________________________________________________
activation_12 (Activation)      (None, 128, 60, 16)  0           add_5[0][0]                      
__________________________________________________________________________________________________
conv2d_15 (Conv2D)              (None, 256, 60, 16)  295168      activation_12[0][0]              
__________________________________________________________________________________________________
batch_normalization_13 (BatchNo (None, 256, 60, 16)  64          conv2d_15[0][0]                  
__________________________________________________________________________________________________
activation_13 (Activation)      (None, 256, 60, 16)  0           batch_normalization_13[0][0]     
__________________________________________________________________________________________________
conv2d_16 (Conv2D)              (None, 256, 60, 16)  590080      activation_13[0][0]              
__________________________________________________________________________________________________
batch_normalization_14 (BatchNo (None, 256, 60, 16)  64          conv2d_16[0][0]                  
__________________________________________________________________________________________________
conv2d_17 (Conv2D)              (None, 256, 60, 16)  33024       activation_12[0][0]              
__________________________________________________________________________________________________
add_6 (Add)                     (None, 256, 60, 16)  0           batch_normalization_14[0][0]     
                                                                 conv2d_17[0][0]                  
__________________________________________________________________________________________________
activation_14 (Activation)      (None, 256, 60, 16)  0           add_6[0][0]                      
__________________________________________________________________________________________________
conv2d_18 (Conv2D)              (None, 256, 60, 16)  590080      activation_14[0][0]              
__________________________________________________________________________________________________
batch_normalization_15 (BatchNo (None, 256, 60, 16)  64          conv2d_18[0][0]                  
__________________________________________________________________________________________________
activation_15 (Activation)      (None, 256, 60, 16)  0           batch_normalization_15[0][0]     
__________________________________________________________________________________________________
conv2d_19 (Conv2D)              (None, 256, 60, 16)  590080      activation_15[0][0]              
__________________________________________________________________________________________________
batch_normalization_16 (BatchNo (None, 256, 60, 16)  64          conv2d_19[0][0]                  
__________________________________________________________________________________________________
add_7 (Add)                     (None, 256, 60, 16)  0           batch_normalization_16[0][0]     
                                                                 activation_14[0][0]              
__________________________________________________________________________________________________
activation_16 (Activation)      (None, 256, 60, 16)  0           add_7[0][0]                      
__________________________________________________________________________________________________
conv2d_20 (Conv2D)              (None, 256, 60, 16)  590080      activation_16[0][0]              
__________________________________________________________________________________________________
batch_normalization_17 (BatchNo (None, 256, 60, 16)  64          conv2d_20[0][0]                  
__________________________________________________________________________________________________
activation_17 (Activation)      (None, 256, 60, 16)  0           batch_normalization_17[0][0]     
__________________________________________________________________________________________________
conv2d_21 (Conv2D)              (None, 256, 60, 16)  590080      activation_17[0][0]              
__________________________________________________________________________________________________
batch_normalization_18 (BatchNo (None, 256, 60, 16)  64          conv2d_21[0][0]                  
__________________________________________________________________________________________________
add_8 (Add)                     (None, 256, 60, 16)  0           batch_normalization_18[0][0]     
                                                                 activation_16[0][0]              
__________________________________________________________________________________________________
activation_18 (Activation)      (None, 256, 60, 16)  0           add_8[0][0]                      
__________________________________________________________________________________________________
conv2d_22 (Conv2D)              (None, 512, 60, 16)  1180160     activation_18[0][0]              
__________________________________________________________________________________________________
batch_normalization_19 (BatchNo (None, 512, 60, 16)  64          conv2d_22[0][0]                  
__________________________________________________________________________________________________
activation_19 (Activation)      (None, 512, 60, 16)  0           batch_normalization_19[0][0]     
__________________________________________________________________________________________________
conv2d_23 (Conv2D)              (None, 512, 60, 16)  2359808     activation_19[0][0]              
__________________________________________________________________________________________________
batch_normalization_20 (BatchNo (None, 512, 60, 16)  64          conv2d_23[0][0]                  
__________________________________________________________________________________________________
conv2d_24 (Conv2D)              (None, 512, 60, 16)  131584      activation_18[0][0]              
__________________________________________________________________________________________________
add_9 (Add)                     (None, 512, 60, 16)  0           batch_normalization_20[0][0]     
                                                                 conv2d_24[0][0]                  
__________________________________________________________________________________________________
activation_20 (Activation)      (None, 512, 60, 16)  0           add_9[0][0]                      
__________________________________________________________________________________________________
conv2d_25 (Conv2D)              (None, 512, 60, 16)  2359808     activation_20[0][0]              
__________________________________________________________________________________________________
batch_normalization_21 (BatchNo (None, 512, 60, 16)  64          conv2d_25[0][0]                  
__________________________________________________________________________________________________
activation_21 (Activation)      (None, 512, 60, 16)  0           batch_normalization_21[0][0]     
__________________________________________________________________________________________________
conv2d_26 (Conv2D)              (None, 512, 60, 16)  2359808     activation_21[0][0]              
__________________________________________________________________________________________________
batch_normalization_22 (BatchNo (None, 512, 60, 16)  64          conv2d_26[0][0]                  
__________________________________________________________________________________________________
add_10 (Add)                    (None, 512, 60, 16)  0           batch_normalization_22[0][0]     
                                                                 activation_20[0][0]              
__________________________________________________________________________________________________
activation_22 (Activation)      (None, 512, 60, 16)  0           add_10[0][0]                     
__________________________________________________________________________________________________
conv2d_27 (Conv2D)              (None, 512, 60, 16)  2359808     activation_22[0][0]              
__________________________________________________________________________________________________
batch_normalization_23 (BatchNo (None, 512, 60, 16)  64          conv2d_27[0][0]                  
__________________________________________________________________________________________________
activation_23 (Activation)      (None, 512, 60, 16)  0           batch_normalization_23[0][0]     
__________________________________________________________________________________________________
conv2d_28 (Conv2D)              (None, 512, 60, 16)  2359808     activation_23[0][0]              
__________________________________________________________________________________________________
batch_normalization_24 (BatchNo (None, 512, 60, 16)  64          conv2d_28[0][0]                  
__________________________________________________________________________________________________
add_11 (Add)                    (None, 512, 60, 16)  0           batch_normalization_24[0][0]     
                                                                 activation_22[0][0]              
__________________________________________________________________________________________________
activation_24 (Activation)      (None, 512, 60, 16)  0           add_11[0][0]                     
__________________________________________________________________________________________________
dropout (Dropout)               (None, 512, 60, 16)  0           activation_24[0][0]              
__________________________________________________________________________________________________
dense (Dense)                   (None, 512, 60, 512) 8704        dropout[0][0]                    
__________________________________________________________________________________________________
dense_1 (Dense)                 (None, 512, 60, 12)  6156        dense[0][0]                      
__________________________________________________________________________________________________
permute (Permute)               (None, 60, 512, 12)  0           dense_1[0][0]                    
__________________________________________________________________________________________________
average_pooling2d (AveragePooli (None, 60, 128, 2)   0           permute[0][0]                    
__________________________________________________________________________________________________
reshape (Reshape)               (None, 60, 256)      0           average_pooling2d[0][0]          
__________________________________________________________________________________________________
bidirectional (Bidirectional)   (None, 60, 128)      296448      reshape[0][0]                    
__________________________________________________________________________________________________
bidirectional_1 (Bidirectional) (None, 60, 128)      198144      bidirectional[0][0]              
__________________________________________________________________________________________________
time_distributed (TimeDistribut (None, 60, 128)      16512       bidirectional_1[0][0]            
__________________________________________________________________________________________________
dropout_1 (Dropout)             (None, 60, 128)      0           time_distributed[0][0]           
__________________________________________________________________________________________________
time_distributed_1 (TimeDistrib (None, 60, 36)       4644        dropout_1[0][0]                  
__________________________________________________________________________________________________
doa_out (Activation)            (None, 60, 36)       0           time_distributed_1[0][0]         
==================================================================================================
Total params: 17,999,024
Trainable params: 17,998,128
Non-trainable params: 896
__________________________________________________________________________________________________
Dumping recording-wise val results in: results\1_mic_eval_val
Split: desktop.ini
…
